…
urm": false, "local_rank": 0, "master_port": -1, "modality": "img", "train_dir": "../train/", "val_dir": "../test/", "train_annotation_file": null, "val_annotation_file": null, "image_dataset_config": {"train_dir": "../train/", "val_dir": "../test/", "train_annotation_file": null, "val_annotation_file": null}, "video_dataset_config": null, "is_slurm_job": false, "global_rank": 0, "world_size": 1, "n_gpu_per_node": 1, "n_nodes": 1, "node_id": 0, "is_master": true, "multi_node": false, "distributed": false}
UnetEmbedder(
  (unet): UNetMsg(
    (msg_processor): MsgProcessor(
      (msg_embeddings): Embedding(256, 128)
    )
    (inc): ResnetBlock(
      (double_conv): Sequential(
        (0): Conv2d(1, 16, kernel_size=(3, 3), stride=(1, 1), padding=(1, 1), bias=False)
        (1): BatchNorm2d(16, eps=1e-05, momentum=0.1, affine=True, track_running_stats=True)
        (2): ReLU()
        (3): Conv2d(16, 16, kernel_size=(3, 3), stride=(1, 1), padding=(1, 1), bias=False)
        (4): BatchNorm2d(16, eps=1e-05, momentum=0.1, affine=True, track_running_stats=True)
        (5): ReLU()
      )
      (res_conv): Conv2d(1, 16, kernel_size=(1, 1), stride=(1, 1))
    )
    (downs): ModuleList(
      (0): DBlock(
        (down): Conv2d(16, 32, kernel_size=(3, 3), stride=(2, 2), padding=(1, 1))
        (conv): ResnetBlock(
          (double_conv): Sequential(
            (0): Conv2d(32, 32, kernel_size=(3, 3), stride=(1, 1), padding=(1, 1), bias=False)
            (1): BatchNorm2d(32, eps=1e-05, momentum=0.1, affine=True, track_running_stats=True)
            (2): ReLU()
            (3): Conv2d(32, 32, kernel_size=(3, 3), stride=(1, 1), padding=(1, 1), bias=False)
            (4): BatchNorm2d(32, eps=1e-05, momentum=0.1, affine=True, track_running_stats=True)
            (5): ReLU()
          )
          (res_conv): Conv2d(32, 32, kernel_size=(1, 1), stride=(1, 1))
        )
      )
      (1): DBlock(
        (down): Conv2d(32, 64, kernel_size=(3, 3), stride=(2, 2), padding=(1, 1))
        (conv): ResnetBlock(
          (double_conv): Sequential(
            (0): Conv2d(64, 64, kernel_size=(3, 3), stride=(1, 1), padding=(1, 1), bias=False)
            (1): BatchNorm2d(64, eps=1e-05, momentum=0.1, affine=True, track_running_stats=True)
            (2): ReLU()
            (3): Conv2d(64, 64, kernel_size=(3, 3), stride=(1, 1), padding=(1, 1), bias=False)
            (4): BatchNorm2d(64, eps=1e-05, momentum=0.1, affine=True, track_running_stats=True)
            (5): ReLU()
          )
          (res_conv): Conv2d(64, 64, kernel_size=(1, 1), stride=(1, 1))
        )
      )
      (2): DBlock(
        (down): Conv2d(64, 128, kernel_size=(3, 3), stride=(2, 2), padding=(1, 1))
        (conv): ResnetBlock(
          (double_conv): Sequential(
            (0): Conv2d(128, 128, kernel_size=(3, 3), stride=(1, 1), padding=(1, 1), bias=False)
            (1): BatchNorm2d(128, eps=1e-05, momentum=0.1, affine=True, track_running_stats=True)
            (2): ReLU()
            (3): Conv2d(128, 128, kernel_size=(3, 3), stride=(1, 1), padding=(1, 1), bias=False)
            (4): BatchNorm2d(128, eps=1e-05, momentum=0.1, affine=True, track_running_stats=True)
            (5): ReLU()
          )
          (res_conv): Conv2d(128, 128, kernel_size=(1, 1), stride=(1, 1))
        )
      )
    )
    (bottleneck): BottleNeck(
      (model): Sequential(
        (0): ResnetBlock(
          (double_conv): Sequential(
            (0): Conv2d(256, 256, kernel_size=(3, 3), stride=(1, 1), padding=(1, 1), bias=False)
            (1): BatchNorm2d(256, eps=1e-05, momentum=0.1, affine=True, track_running_stats=True)
            (2): ReLU()
            (3): Conv2d(256, 256, kernel_size=(3, 3), stride=(1, 1), padding=(1, 1), bias=False)
            (4): BatchNorm2d(256, eps=1e-05, momentum=0.1, affine=True, track_running_stats=True)
            (5): ReLU()
          )
          (res_conv): Conv2d(256, 256, kernel_size=(1, 1), stride=(1, 1))
        )
        (1): ResnetBlock(
          (double_conv): Sequential(
            (0): Conv2d(256, 256, kernel_size=(3, 3), stride=(1, 1), padding=(1, 1), bias=False)
            (1): BatchNorm2d(256, eps=1e-05, momentum=0.1, affine=True, track_running_stats=True)
            (2): ReLU()
            (3): Conv2d(256, 256, kernel_size=(3, 3), stride=(1, 1), padding=(1, 1), bias=False)
            (4): BatchNorm2d(256, eps=1e-05, momentum=0.1, affine=True, track_running_stats=True)
            (5): ReLU()
          )
          (res_conv): Conv2d(256, 256, kernel_size=(1, 1), stride=(1, 1))
        )
        (2): ResnetBlock(
          (double_conv): Sequential(
            (0): Conv2d(256, 256, kernel_size=(3, 3), stride=(1, 1), padding=(1, 1), bias=False)
            (1): BatchNorm2d(256, eps=1e-05, momentum=0.1, affine=True, track_running_stats=True)
            (2): ReLU()
            (3): Conv2d(256, 256, kernel_size=(3, 3), stride=(1, 1), padding=(1, 1), bias=False)
            (4): BatchNorm2d(256, eps=1e-05, momentum=0.1, affine=True, track_running_stats=True)
            (5): ReLU()
          )
          (res_conv): Conv2d(256, 256, kernel_size=(1, 1), stride=(1, 1))
        )
        (3): ResnetBlock(
          (double_conv): Sequential(
            (0): Conv2d(256, 256, kernel_size=(3, 3), stride=(1, 1), padding=(1, 1), bias=False)
            (1): BatchNorm2d(256, eps=1e-05, momentum=0.1, affine=True, track_running_stats=True)
            (2): ReLU()
            (3): Conv2d(256, 256, kernel_size=(3, 3), stride=(1, 1), padding=(1, 1), bias=False)
            (4): BatchNorm2d(256, eps=1e-05, momentum=0.1, affine=True, track_running_stats=True)
            (5): ReLU()
          )
          (res_conv): Conv2d(256, 256, kernel_size=(1, 1), stride=(1, 1))
        )
        (4): ResnetBlock(
          (double_conv): Sequential(
            (0): Conv2d(256, 256, kernel_size=(3, 3), stride=(1, 1), padding=(1, 1), bias=False)
            (1): BatchNorm2d(256, eps=1e-05, momentum=0.1, affine=True, track_running_stats=True)
            (2): ReLU()
            (3): Conv2d(256, 256, kernel_size=(3, 3), stride=(1, 1), padding=(1, 1), bias=False)
            (4): BatchNorm2d(256, eps=1e-05, momentum=0.1, affine=True, track_running_stats=True)
            (5): ReLU()
          )
          (res_conv): Conv2d(256, 256, kernel_size=(1, 1), stride=(1, 1))
        )
        (5): ResnetBlock(
          (double_conv): Sequential(
            (0): Conv2d(256, 256, kernel_size=(3, 3), stride=(1, 1), padding=(1, 1), bias=False)
            (1): BatchNorm2d(256, eps=1e-05, momentum=0.1, affine=True, track_running_stats=True)
            (2): ReLU()
            (3): Conv2d(256, 256, kernel_size=(3, 3), stride=(1, 1), padding=(1, 1), bias=False)
            (4): BatchNorm2d(256, eps=1e-05, momentum=0.1, affine=True, track_running_stats=True)
            (5): ReLU()
          )
          (res_conv): Conv2d(256, 256, kernel_size=(1, 1), stride=(1, 1))
        )
        (6): ResnetBlock(
          (double_conv): Sequential(
            (0): Conv2d(256, 256, kernel_size=(3, 3), stride=(1, 1), padding=(1, 1), bias=False)
            (1): BatchNorm2d(256, eps=1e-05, momentum=0.1, affine=True, track_running_stats=True)
            (2): ReLU()
            (3): Conv2d(256, 256, kernel_size=(3, 3), stride=(1, 1), padding=(1, 1), bias=False)
            (4): BatchNorm2d(256, eps=1e-05, momentum=0.1, affine=True, track_running_stats=True)
            (5): ReLU()
          )
          (res_conv): Conv2d(256, 256, kernel_size=(1, 1), stride=(1, 1))
        )
        (7): ResnetBlock(
          (double_conv): Sequential(
            (0): Conv2d(256, 256, kernel_size=(3, 3), stride=(1, 1), padding=(1, 1), bias=False)
            (1): BatchNorm2d(256, eps=1e-05, momentum=0.1, affine=True, track_running_stats=True)
            (2): ReLU()
            (3): Conv2d(256, 256, kernel_size=(3, 3), stride=(1, 1), padding=(1, 1), bias=False)
            (4): BatchNorm2d(256, eps=1e-05, momentum=0.1, affine=True, track_running_stats=True)
            (5): ReLU()
          )
          (res_conv): Conv2d(256, 256, kernel_size=(1, 1), stride=(1, 1))
        )
      )
    )
    (ups): ModuleList(
      (0): UBlock(
        (up): Upsample(
          (upsample_block): Sequential(
            (0): Upsample(scale_factor=2.0, mode='bilinear')
            (1): ReflectionPad2d((1, 1, 1, 1))
            (2): Conv2d(512, 64, kernel_size=(3, 3), stride=(1, 1), bias=False)
            (3): LayerNorm()
            (4): ReLU()
          )
        )
        (conv): ResnetBlock(
          (double_conv): Sequential(
            (0): Conv2d(64, 64, kernel_size=(3, 3), stride=(1, 1), padding=(1, 1), bias=False)
            (1): BatchNorm2d(64, eps=1e-05, momentum=0.1, affine=True, track_running_stats=True)
            (2): ReLU()
            (3): Conv2d(64, 64, kernel_size=(3, 3), stride=(1, 1), padding=(1, 1), bias=False)
            (4): BatchNorm2d(64, eps=1e-05, momentum=0.1, affine=True, track_running_stats=True)
            (5): ReLU()
          )
          (res_conv): Conv2d(64, 64, kernel_size=(1, 1), stride=(1, 1))
        )
      )
      (1): UBlock(
        (up): Upsample(
          (upsample_block): Sequential(
            (0): Upsample(scale_factor=2.0, mode='bilinear')
            (1): ReflectionPad2d((1, 1, 1, 1))
            (2): Conv2d(128, 32, kernel_size=(3, 3), stride=(1, 1), bias=False)
            (3): LayerNorm()
            (4): ReLU()
          )
        )
        (conv): ResnetBlock(
          (double_conv): Sequential(
            (0): Conv2d(32, 32, kernel_size=(3, 3), stride=(1, 1), padding=(1, 1), bias=False)
            (1): BatchNorm2d(32, eps=1e-05, momentum=0.1, affine=True, track_running_stats=True)
            (2): ReLU()
            (3): Conv2d(32, 32, kernel_size=(3, 3), stride=(1, 1), padding=(1, 1), bias=False)
            (4): BatchNorm2d(32, eps=1e-05, momentum=0.1, affine=True, track_running_stats=True)
            (5): ReLU()
          )
          (res_conv): Conv2d(32, 32, kernel_size=(1, 1), stride=(1, 1))
        )
      )
      (2): UBlock(
        (up): Upsample(
          (upsample_block): Sequential(
            (0): Upsample(scale_factor=2.0, mode='bilinear')
            (1): ReflectionPad2d((1, 1, 1, 1))
            (2): Conv2d(64, 16, kernel_size=(3, 3), stride=(1, 1), bias=False)
            (3): LayerNorm()
            (4): ReLU()
          )
        )
        (conv): ResnetBlock(
          (double_conv): Sequential(
            (0): Conv2d(16, 16, kernel_size=(3, 3), stride=(1, 1), padding=(1, 1), bias=False)
            (1): BatchNorm2d(16, eps=1e-05, momentum=0.1, affine=True, track_running_stats=True)
            (2): ReLU()
            (3): Conv2d(16, 16, kernel_size=(3, 3), stride=(1, 1), padding=(1, 1), bias=False)
            (4): BatchNorm2d(16, eps=1e-05, momentum=0.1, affine=True, track_running_stats=True)
            (5): ReLU()
          )
          (res_conv): Conv2d(16, 16, kernel_size=(1, 1), stride=(1, 1))
        )
      )
    )
    (outc): Conv2d(16, 1, kernel_size=(1, 1), stride=(1, 1))
  )
  (msg_processor): MsgProcessor(
    (msg_embeddings): Embedding(256, 128)
  )
)
embedder: 11.0M parameters
augmenter: Augmenter(augs=['Identity'], probs=tensor([1.]))
---------------------------------------- configs/extractor.yaml
extractor: 33.3M parameters
attenuation: JND(
  (conv_x): Conv2d(3, 3, kernel_size=(3, 3), stride=(1, 1), padding=(1, 1), bias=False)
  (conv_y): Conv2d(3, 3, kernel_size=(3, 3), stride=(1, 1), padding=(1, 1), bias=False)
  (conv_lum): Conv2d(3, 3, kernel_size=(5, 5), stride=(1, 1), padding=(2, 2), bias=False)
)
VideosealLoss(
  (perceptual_loss): PerceptualLoss(percep_loss=yuv)
  (discriminator): NLayerDiscriminator(
    (rgb2yuv): RGB2YUV()
    (main): Sequential(
      (0): Conv2d(1, 32, kernel_size=(4, 4), stride=(2, 2), padding=(1, 1))
      (1): LeakyReLU(negative_slope=0.2, inplace=True)
      (2): Conv2d(32, 64, kernel_size=(4, 4), stride=(2, 2), padding=(1, 1))
      (3): GroupNorm(4, 64, eps=1e-05, affine=True)
      (4): LeakyReLU(negative_slope=0.2, inplace=True)
      (5): Conv2d(64, 128, kernel_size=(4, 4), stride=(1, 1), padding=(1, 1))
      (6): GroupNorm(4, 128, eps=1e-05, affine=True)
      (7): LeakyReLU(negative_slope=0.2, inplace=True)
      (8): Conv2d(128, 1, kernel_size=(4, 4), stride=(1, 1), padding=(1, 1))
    )
  )
  (detection_loss): CosineEmbeddingLoss()
  (decoding_loss): CosineEmbeddingLoss()
)
optimizer: AdamW (
Parameter Group 0
    amsgrad: False
    betas: (0.9, 0.999)
    eps: 1e-08
    initial_lr: 0.0003
    lr: 0.0003
    weight_decay: 0.01
)
scheduler: <timm.scheduler.cosine_lr.CosineLRScheduler object at 0x737139cc7c20>
optimizer_d: AdamW (
…
